backend/package/assets/models/emotion_classification_audio_CNN_np.pth (torch, 833168 bytes, 8 tensors)

conv1.weight f4 [64, 1, 5]
0	0xbeed19f2	-0.46308857
1	0xbf7a2e53	-0.97726935
2	0x3f220e95	0.633035
3	0x3e8f984d	0.28045884
4	0xbecd69d3	-0.401198
5	0xbf4751e5	-0.77859336
6	0x4010105c	2.2509985
7	0xbf68a6db	-0.908796
8	0xc004e138	-2.0762463
9	0x3fbbfeee	1.4687173
10	0x3d0012ef	0.031268056
11	0x3f3bc7d8	0.7335181
12	0x3f03310c	0.51246715
13	0x3d4a67e8	0.0494155
14	0xbeae25de	-0.34013265
15	0xbdccf664	-0.10007933
16	0x3f89c120	1.0762062
17	0xbe17ea51	-0.14835478
18	0xbf1d2981	-0.61391455
19	0xbf5002c6	-0.8125423
20	0xbf1bc67c	-0.6084974
21	0x3f812fff	1.0092772
22	0x3f146193	0.57961386
23	0xc0014c32	-2.0202756
24	0x3f846d40	1.034584
25	0x3f36d8bb	0.71424454
26	0x3f8c84e0	1.097805
27	0x3ef47711	0.4774709
28	0xbf316421	-0.6929341
29	0xbf2fa5bb	-0.6861226
30	0x3f51ffd4	0.8203099
31	0xbe7dade7	-0.2477337
32	0x3eacd393	0.33755168
33	0x3e899062	0.26867968
34	0x3e9cd039	0.3062761
35	0x3fccd117	1.6001309
36	0x3f0bd4ca	0.54621565
37	0xbe607afb	-0.21921913
38	0xbf65d9c0	-0.89785385
39	0xbf81f5fc	-1.0153193
40	0xbf09f48d	-0.5388878
41	0xbf53da6e	-0.8275517
42	0x3f5d76c9	0.86509377
43	0x3f995751	1.1979772
44	0x3f4ad845	0.7923625
45	0x3d3b8038	0.045776576
46	0x3eeab097	0.45837852
47	0xbe7544fe	-0.239521
48	0x3d173578	0.036916226
49	0x3eda182c	0.42596567
50	0xbf781dc9	-0.9692045
51	0x3f39d4e2	0.7259046
52	0x3fab70a7	1.3393754
53	0xbed05649	-0.4069083
54	0xbf383dc0	-0.71969223
55	0x3e5b0e15	0.2139209
56	0xbefbc30b	-0.49172243
57	0x3f140358	0.578176
58	0xbec46304	-0.38356793
59	0x3db41737	0.087934904
60	0x3f8450c2	1.0337145
61	0x3f94241d	1.1573521
62	0xbdd40f21	-0.10354448
63	0xbe081329	-0.13288559
64	0xbf8e65a2	-1.1124766
65	0x3e36f2d5	0.1786607
66	0xbe294e48	-0.16533768
67	0x3ee6c42f	0.4507155
68	0xbf2ab74c	-0.6668594
69	0x3f24d213	0.6438305
70	0x3f9fddbe	1.2489545
71	0x3f974bc5	1.1819998
72	0x3e853806	0.26019305
73	0xbf498dd5	-0.78732044
74	0xbf66a6f5	-0.90098506
75	0x401dd97b	2.466399
76	0x3e0728b7	0.13199125
77	0x3eebfe5a	0.46092492
78	0xbfc5eea1	-1.5463449
79	0xbfc07527	-1.5035752
80	0x3f7a1eb2	0.9770309
81	0x3f25014a	0.6445509
82	0xbf3e81c0	-0.7441673
83	0x3f26973c	0.65074515
84	0xbccbd7e8	-0.024883226
85	0xbe37f91c	-0.17966121
86	0xbedafcb5	-0.42770925
87	0x3f85eacd	1.046228
88	0xbf2e9af9	-0.6820522
89	0x3fa305e2	1.273617
90	0x3ee19af5	0.44063535
91	0xbed60d41	-0.41806987
92	0xbf3ca572	-0.7368995
93	0x3fa21fd8	1.2665968
94	0xbf1019c2	-0.56289303
95	0xbfa45b31	-1.284033
96	0xbf447e1b	-0.7675492
97	0xbf6c0e3b	-0.92209214
98	0x3f3b6ad1	0.73209864
99	0x400da7d3	2.2133682
100	0xbe9eb4be	-0.3099727
101	0x3f56f6d8	0.83970404
102	0xbf7a18c9	-0.9769407
103	0x3f2945ad	0.6612194
104	0xbe551731	-0.20809628
105	0x3eedf172	0.4647327
106	0x3f144af4	0.5792687
107	0x3e82a94d	0.2551979
108	0x3f25734b	0.6462905
109	0x3daed8da	0.08537455
110	0xbe61f396	-0.22065577
111	0x3fbbd7c9	1.4675227
112	0xbf764784	-0.96202874
113	0xbea9beff	-0.3315353
114	0xbe677013	-0.22601347
115	0xbeebc6ae	-0.46050018
116	0xbf3cf329	-0.7380853
117	0x3eb56306	0.3542711
118	0x3f246905	0.6422275
119	0x3f443130	0.76637554
120	0x40042175	2.064542
121	0x3e98783a	0.29779226
122	0xbee00d14	-0.43759978
123	0xbf794604	-0.9737246
124	0xbf730aad	-0.94938165
125	0x3f09e3e9	0.5386339
126	0x3e471b8f	0.19444107
127	0xbf3150c0	-0.6926384
128	0x3f1a8810	0.60363865
129	0x3a156385	0.00056987285
130	0xbf778fc9	-0.96703774
131	0xbedc81fe	-0.43067926
132	0x3d01d788	0.031699687
133	0xbebf1d3e	-0.37326998
134	0x3fdada5e	1.709789
135	0xbf232f9b	-0.63744515
136	0x3eb4a6c9	0.35283497
137	0x3f9d0a97	1.2268857
138	0x3f42950a	0.76008666
139	0xbfdfc51a	-1.7482026
140	0xbf0062fb	-0.5015103
141	0xbf467311	-0.7751933
142	0x3e3ae9d1	0.18253256
143	0xbef9a20f	-0.48756453
144	0x3faa4473	1.3302139
145	0xbfe97804	-1.8239751
146	0xbfff80c8	-1.9961176
147	0x3f5dfa98	0.867105
148	0x3fb1d82a	1.3894093
149	0x3fbc6212	1.4717429
150	0x3f55a191	0.83449656
151	0x3eeb8ef3	0.460075
152	0xbfb12a6d	-1.3841072
153	0x3de7e1df	0.11322378
154	0x3e6a47f6	0.22879013
155	0xbf4a84e2	-0.79109013
156	0xbf146eb1	-0.579814
157	0x3f138257	0.5762076
158	0x3f9e2179	1.2353965
159	0x3f8ff732	1.1247313
160	0xbf9ee3cb	-1.2413267
161	0xbf39e532	-0.7261535
162	0xbd95d205	-0.07315449
163	0x3f6462c2	0.8921319
164	0x3f10c61c	0.5655229
165	0xbf7021a4	-0.9380133
166	0xbe5e746d	-0.217241
167	0x3fb44a29	1.4085132
168	0xbf92e4be	-1.1476057
169	0x3f44a879	0.7681957
170	0xbf7032b5	-0.9382737
171	0x3f407cde	0.7519053
172	0x3fe8890b	1.8166822
173	0xbf4f35f5	-0.80941707
174	0xbf53cfed	-0.82739145
175	0x3f770fe5	0.9650863
176	0x3fb65fec	1.4248023
177	0x3f8356ad	1.0260826
178	0xbfc9c71e	-1.5763891
179	0xbfe6f064	-1.8042111
180	0x3f9c0b02	1.2190859
181	0xbf81ec1c	-1.015018
182	0xbda730b5	-0.08163587
183	0xbfc63765	-1.5485655
184	0x3fb6cfc6	1.4282157
185	0xbee29fd4	-0.44262564
186	0x3f23fe26	0.64059675
187	0x3f3a75e9	0.72836167
188	0x3f117b3f	0.56828684
189	0xbf7f5226	-0.99734724
190	0xbe37fef4	-0.1796835
191	0xbeaeeedd	-0.34166613
192	0x3f4b2336	0.793506
193	0x3f664d58	0.8996177
194	0xbe2fd43d	-0.17170806
195	0xbf5990ee	-0.8498677
196	0xbe51fb1b	-0.20505945
197	0x3fca49ed	1.580381
198	0xbf3beeae	-0.7341107
199	0x3e37c83b	0.17947476
200	0xbe984892	-0.29742867
201	0xbfb33262	-1.3999751
202	0xbf679ec1	-0.90476614
203	0xbf285fb4	-0.6577103
204	0x4015c1e7	2.3399599
205	0xbf53d98b	-0.8275382
206	0xbfaa7b7f	-1.3318938
207	0xbfa344d3	-1.2755378
208	0x3f95cd50	1.1703281
209	0x3ff9c6e6	1.9513824
210	0xbd8d39f2	-0.06895818
211	0x3fd50c01	1.6644288
212	0x3c43f0a3	0.011959228
213	0xbf1b7322	-0.60722554
214	0xbf7e6506	-0.993729
215	0x3fea4346	1.830178
216	0x3e2d29f5	0.16910537
217	0xbe472894	-0.19449073
218	0xbf40a376	-0.7524942
219	0xbfc341ad	-1.5254418
220	0x3f283154	0.6570027
221	0xbf67ff06	-0.9062351
222	0x3ef8fd22	0.48630625
223	0xbdef245d	-0.116768576
224	0xbdcc2218	-0.0996744
225	0x3f241a29	0.6410242
226	0x3f8382a7	1.0274247
227	0x3f2ac48c	0.66706157
228	0xbe0a330d	-0.13496037
229	0xbfa9a9e5	-1.3254973
230	0xbe9f584d	-0.31122056
231	0xbe22b0bb	-0.1588773
232	0x3f56f756	0.83971155
233	0xbf8a25f3	-1.0792831
234	0x3e64c7b4	0.22341806
235	0xbe0ae87f	-0.13565253
236	0xbd89a7b8	-0.06721443
237	0x3ebb279e	0.36553663
238	0xbe655b7a	-0.22398177
239	0xbe355845	-0.17709453
240	0x3fa26db8	1.2689734
241	0x3f755e64	0.95847154
242	0xbe8e2675	-0.27763715
243	0xbf8e5211	-1.1118795
244	0xbf8ca1b1	-1.0986844
245	0x3fa35f66	1.2763488
246	0x3eaaf86f	0.33392665
247	0xbed8bb97	-0.4233062
248	0xbf5a866c	-0.8536136
249	0xbf82c3ef	-1.0216044
250	0xbef8b37d	-0.4857444
251	0x3f2d7dd3	0.6777012
252	0x3e8ede36	0.27903908
253	0xbfb0c8c6	-1.3811271
254	0x3f7a2ff0	0.97729397
255	0xbf02c43b	-0.51080674

conv1.bias f4 [64]
0	0xbf1200fa	-0.5703274
1	0x3de4f141	0.11178828
2	0xbe53be74	-0.20678121
3	0xbf308a75	-0.6896127
4	0x3f7ecaa7	0.9952797
5	0x3e69a974	0.22818547
6	0x3f2901a4	0.6601813
7	0x3e9eecc6	0.3104002
8	0x3eff34b4	0.49844897
9	0xbef7f1d3	-0.48426685
10	0x3d0ee061	0.034881953
11	0x3f743741	0.9539681
12	0xbeae5470	-0.34048796
13	0xbf0775ba	-0.5291401
14	0xbec0826c	-0.37599504
15	0x3ee8d80f	0.4547734
16	0x3e86799b	0.26264653
17	0xbe6294d1	-0.22127081
18	0x3f71f82e	0.9451932
19	0xbed17f01	-0.4091721
20	0xbe7184b0	-0.23585773
21	0x3f38e066	0.72217405
22	0xbd4ae274	-0.04953237
23	0xbf1e6889	-0.6187826
24	0x3f2447f6	0.64172304
25	0xbccd3e34	-0.025054075
26	0xbef6c05a	-0.48193628
27	0xbe9e7bba	-0.3095377
28	0xbe469e46	-0.19396314
29	0x3ea14869	0.31500557
30	0x3f2c34b2	0.67267907
31	0x3e5b0eb4	0.21392328
32	0xbeab6f05	-0.3348314
33	0x3f19cfdb	0.6008279
34	0x3f3e9a5c	0.74454284
35	0x3f1ed6ba	0.62046397
36	0x3f0b878a	0.5450369
37	0xbf1a95a2	-0.6038457
38	0x3eca6d0f	0.3953633
39	0xbeb416af	-0.35173556
40	0x3f082ec4	0.5319636
41	0xbed51ace	-0.41622013
42	0xbe017b24	-0.1264463
43	0xbea4a71e	-0.3215875
44	0x3c0fd811	0.008779542
45	0xbf1f97e3	-0.62341136
46	0xbf0bb298	-0.5456939
47	0xbe262d93	-0.16228323
48	0xbf37cce9	-0.71797043
49	0xbf5f9bcc	-0.873471
50	0x3eb81339	0.35952166
51	0xbea0284e	-0.3128075
52	0x3f126a7e	0.57193744
53	0x3eee13c1	0.46499446
54	0xbeaab96c	-0.3334459
55	0xbf4dd4b2	-0.8040267
56	0x3f1c2bb4	0.61004186
57	0xbe951dc3	-0.2912427
58	0x3e38f1f5	0.1806105
59	0xbe1b206e	-0.1514909
60	0xbf5145c9	-0.8174711
61	0xbdd79f0f	-0.10528385
62	0xbf632a6a	-0.88736594
63	0xbe4cfe9f	-0.20019005

conv2.weight f4 [128, 64, 5]
0	0x3d7800a0	0.06054747
1	0xbd007f6c	-0.03137152
2	0xbdaac59e	-0.08338474
3	0x3c2a48b1	0.010393308
4	0x3b87a6a1	0.0041397368
5	0xbdf936d8	-0.12168664
6	0xbd2f33d5	-0.04277404
7	0x3c168307	0.009186513
8	0xbd93c23e	-0.07214783
9	0xbcc3ed49	-0.023916857
10	0xbd493fa8	-0.049132973
11	0xbd429005	-0.04750063
12	0xbc923655	-0.017848173
13	0xbd7f8f15	-0.062392313
14	0xbd620010	-0.05517584
15	0xbdba90db	-0.0910966
16	0xbcf154c8	-0.029459372
17	0xbd33cf0d	-0.04389863
18	0x3dbe0e3f	0.09280061
19	0x3d9f047e	0.07764529
20	0x3b69f300	0.0035697818
21	0xbd6970bf	-0.05699229
22	0xbd85db2e	-0.06535946
23	0x3d087a52	0.03331978
24	0xbdc8ae2e	-0.09798847
25	0xbbcda539	-0.0062757996
26	0xbc890254	-0.016724743
27	0xbdb0cebb	-0.08633181
28	0xbde7f08f	-0.1132518
29	0xbdd04313	-0.101690434
30	0xbdd98d60	-0.10622668
31	0xbdbd942d	-0.09256778
32	0xbcbd50f6	-0.023109894
33	0xbb448edf	-0.0029992384
34	0xbdafe673	-0.085888766
35	0xbdba9fc3	-0.091125034
36	0xbce9ed1c	-0.028555445
37	0xbd85c804	-0.065322906
38	0xbc889874	-0.016674258
39	0x3e259713	0.16170911
40	0x3bbb8e9a	0.0057237865
41	0xbe108a5d	-0.14115281
42	0xbda43388	-0.08017641
43	0x3cd05a6f	0.025433747
44	0xbda9772b	-0.082746826
45	0x3c3b710a	0.011440525
46	0xbd6dbbd1	-0.058040444
47	0xbc72fc6c	-0.01483069
48	0xbd8ca7e2	-0.068679586
49	0x3d2ee7a1	0.042701367
50	0xbda79343	-0.08182385
51	0x3aacabfb	0.0013173813
52	0xbd283990	-0.04107052
53	0x3d269db1	0.04067773
54	0x3c8cd388	0.01719071
55	0x3caff038	0.02147685
56	0xbd421fb1	-0.047393505
57	0xbaefe23a	-0.0018301674
58	0xbd8d85ec	-0.06910309
59	0xbd1e677d	-0.038672913
60	0x3b3888aa	0.002815763
61	0xbd349b56	-0.044093452
62	0x3b2c9255	0.0026332338
63	0xbdbd366c	-0.09238896
64	0xbd46fbab	-0.048579853
65	0x3beac2a6	0.007164317
66	0xbd051c11	-0.03249747
67	0x3c2ec40c	0.010666858
68	0xbd1cdfcf	-0.038299378
69	0xbd79c8d1	-0.06098253
70	0xbdb38b03	-0.08766749
71	0xbc157b51	-0.009123639
72	0xbdc54d93	-0.09633937
73	0xbc8c1b43	-0.017102843
74	0xbd93ae05	-0.07210926
75	0xbdad844c	-0.08472499
76	0xbd9f9d8d	-0.07793722
77	0xbe264cd0	-0.16240239
78	0x3d93845b	0.07202979
79	0x3e194882	0.14969066
80	0xbdb89641	-0.09013034
81	0xbd74fc17	-0.059810724
82	0xbcf8f0e2	-0.0303883
83	0xbe018fb9	-0.12652482
84	0xbbf04425	-0.007332342
85	0x3c9f1737	0.01942025
86	0xbdca1a6a	-0.09868319
87	0xbd796e41	-0.060896162
88	0xbd9fe521	-0.07807375
89	0xbdbb7916	-0.09153955
90	0xbd328db9	-0.04359219
91	0x3ae03ec7	0.0017108553
92	0xbd177bb2	-0.0369832
93	0x3cdea909	0.027180212
94	0xbc9293e1	-0.01789278
95	0x3ddc83bb	0.10767313
96	0xbd964cc7	-0.07338863
97	0xbd4a4f28	-0.049391896
98	0xbd492882	-0.049110897
99	0xbb758248	-0.0037461687
100	0x38e61251	0.00010970666
101	0xbc1ef431	-0.009701774
102	0xbd16ca37	-0.03681394
103	0xbd4fa3a4	-0.05069317
104	0x3c323ce8	0.010878779
105	0xbd655cee	-0.055996828
106	0xbde67b91	-0.11254037
107	0xbde42e5e	-0.11141656
108	0xbe0249d5	-0.12723477
109	0xbd43b09e	-0.047775857
110	0xbe296ca4	-0.1654535
111	0xbdbfa597	-0.09357756
112	0xbd31450a	-0.04327873
113	0x3c6a146a	0.014287094
114	0x3d451ff8	0.04812619
115	0xbd235d12	-0.03988368
116	0xbc405d48	-0.01174099
117	0xbdc099a7	-0.09404307
118	0x3c6160a2	0.013755949
119	0x3c33c58b	0.010972391
120	0xbdee39f7	-0.1163215
121	0xbdfccf80	-0.12344265
122	0xbe1179d7	-0.14206634
123	0xbb153783	-0.0022768683
124	0x3e06feb7	0.13183104
125	0xbda73d0e	-0.08165942
126	0xbca83259	-0.02053182
127	0xbd955e69	-0.07293398
128	0xbc4176c5	-0.011808102
129	0xbcab761d	-0.020930344
130	0x3dce068e	0.10059844
131	0xbd1a657f	-0.03769445
132	0xbcbfd0a1	-0.023414912
133	0xbc6e4068	-0.014541723
134	0xbe1007c7	-0.14065467
135	0xbd94d730	-0.07267606
136	0xbde7f7ff	-0.113265984
137	0xbb82cfce	-0.0039920574
138	0x3e0ef5b4	0.13960916
139	0xbb5e5ad7	-0.0033928656
140	0x3dd51d98	0.10406035
141	0xbce39f97	-0.02778606
142	0xbcba3b8b	-0.02273347
143	0xbd867844	-0.065659076
144	0xbc9a294d	-0.018818522
145	0x3dcfe6a9	0.10151417
146	0xbc90ac44	-0.017660268
147	0xbe083483	-0.13301282
148	0xbc6b68ba	-0.0143682305
149	0xbc536c79	-0.01290428
150	0xbc1fa6a7	-0.009744323
151	0xbc5d9ee5	-0.013526653
152	0xbb89fe0d	-0.0042111934
153	0x3bd120d5	0.0063820877
154	0x3d5db3f6	0.054126702
155	0xbdaefbd8	-0.08544129
156	0xbde2b602	-0.110698715
157	0xbda7f4e4	-0.08201006
158	0x3d22f793	0.039786886
159	0xbdda1d6e	-0.106501445
160	0x3e214bd6	0.15751585
161	0x3d035fa0	0.032073617
162	0xbd62c59d	-0.05536424
163	0xbd3fb778	-0.04680583
164	0xbdb444b4	-0.088021666
165	0x3dd712a9	0.10501606
166	0x3c3dbf61	0.011581273
167	0x3c601e20	0.013679057
168	0xbd169189	-0.036759887
169	0xbe56546e	-0.20930645
170	0xbdab42f8	-0.08362383
171	0xbdaa24eb	-0.08307823
172	0xbd548a65	-0.051889796
173	0x3e0f6df4	0.14006788
174	0xbcf0122a	-0.029305536
175	0xbe15550b	-0.14583223
176	0xbe072522	-0.13197759
177	0xbe1303fc	-0.14356989
178	0x3e0ff3bb	0.1405782
179	0x3d629c22	0.05532468
180	0xbe0ff112	-0.14056805
181	0xbe0f216d	-0.13977595
182	0xbd1975e5	-0.03746595
183	0xbdfafbe0	-0.122550726
184	0xbd82cbbf	-0.06386518
185	0xbcb7870d	-0.022403264
186	0xbd97d073	-0.074128054
187	0xbd323152	-0.043504067
188	0xbd4defa4	-0.050277367
189	0xbd72b27f	-0.05925226
190	0xbd59fa50	-0.053217232
191	0xbd985002	-0.07437135
192	0xbdee13bd	-0.116248585
193	0xbd5cae20	-0.053876996
194	0xbb9631b3	-0.0045835613
195	0xbcf03fcc	-0.029327296
196	0x3d9e6d7d	0.07735727
197	0xbdc2d005	-0.09512333
198	0xbcf5c181	-0.029999496
199	0xbdada575	-0.08478824
200	0x3e4319ab	0.1905276
201	0xbdb7c4cf	-0.08973085
202	0xbda119f1	-0.07866276
203	0xbe7729dc	-0.24137062
204	0xbda3ae48	-0.07992226
205	0x3e1bb237	0.15204702
206	0xbdcd6129	-0.100282975
207	0xbcbb1781	-0.022838356
208	0xbd26b15f	-0.040696498
209	0x3d9856a8	0.07438403
210	0xbda37122	-0.07980563
211	0xbd0bfcd0	-0.034176648
212	0xbdd12a4d	-0.10213146
213	0x3c07a89e	0.008279948
214	0x3d7d104b	0.061783116
215	0xbe739e74	-0.23790914
216	0xbe0e78e0	-0.13913298
217	0xbd8cef26	-0.068815514
218	0x3ce2a344	0.027665742
219	0x3e1226b7	0.14272581
220	0x3cd3d58c	0.025858663
221	0xbcfcd428	-0.030862883
222	0xbca9c790	-0.020725042
223	0xbbcd0ad1	-0.006257393
224	0x393fd252	0.0001829353
225	0xbce4e817	-0.0279427
226	0xbd643229	-0.0557119
227	0xbdbbe882	-0.09175207
228	0xbbd54f61	-0.006509707
229	0xbdd438ab	-0.10362371
230	0x3c43d0bc	0.011951622
231	0xbd36f87d	-0.04467057
232	0x3c8ec64a	0.017428536
233	0x3d1c860b	0.03821377
234	0xbd88c7ac	-0.066787094
235	0x3d46527a	0.0484185
236	0x3cb131d8	0.021630213
237	0xbb997a36	-0.004683758
238	0x3c55eede	0.013057439
239	0x3d22e81f	0.03977215
240	0xbe718a12	-0.23587826
241	0xbe24962c	-0.16072911
242	0xbd619114	-0.055069998
243	0x3caa84c3	0.020815259
244	0x3e388c6d	0.18022318
245	0xbe4b1ebd	-0.19835944
246	0xbd48fe8a	-0.049070872
247	0xbda14301	-0.07874108
248	0x3c8b6fdc	0.017021112
249	0x3e055ecb	0.13024442
250	0xbda11928	-0.07866126
251	0x3c06314d	0.008190465
252	0xbd5536c5	-0.052054185
253	0x3cbd3630	0.023097128
254	0xbdce8ced	-0.10085473
255	0x3d1780fe	0.03698825

conv2.bias f4 [128]
0	0x3d2a1b62	0.04153002
1	0x3c6f4202	0.01460314
2	0xbd7d64db	-0.06186376
3	0xbe2f2f90	-0.17107987
4	0xbc6cecbe	-0.014460741
5	0xbbba03bf	-0.005676716
6	0x3d5393c1	0.05165458
7	0xbd1c584c	-0.038170144
8	0x3d117840	0.03551507
9	0xbd72b517	-0.059254732
10	0xbd999710	-0.07499516
11	0x3c450650	0.012025431
12	0x3df02397	0.11725538
13	0x3d0ce33b	0.03439639
14	0x3c7e8c44	0.015536372
15	0x3db62fbd	0.08895824
16	0xbd9ed4e9	-0.07755453
17	0x3d6aba57	0.057306614
18	0xbc862914	-0.01637701
19	0xbd61efa1	-0.05516017
20	0xbc8e764c	-0.017390393
21	0xbe08a691	-0.1334479
22	0xbd3cbf40	-0.046080828
23	0xbd9c027c	-0.07617661
24	0xbd416632	-0.0472166
25	0xbe2284c6	-0.15870962
26	0xbdcc4079	-0.09973235
27	0x3d07bd50	0.033139527
28	0x3d780775	0.060553987
29	0xbd7f6765	-0.062354464
30	0x3d910908	0.07081801
31	0x3c88db64	0.016706176
32	0xbd4bdc26	-0.049770497
33	0x3dfb41c6	0.12268405
34	0xbd9ff30b	-0.07810029
35	0xbddc03a5	-0.10742883
36	0xbc049f95	-0.008094688
37	0xbc812998	-0.015766904
38	0xbdade926	-0.08491735
39	0xbda2c2b6	-0.079472944
40	0xbd9f159e	-0.07767795
41	0x3deab585	0.11460403
42	0xbcfcae12	-0.030844722
43	0xbd390a89	-0.045176063
44	0xbba81bbb	-0.005130259
45	0x3ce23590	0.027613431
46	0x3e35a462	0.17738488
47	0xbd17ec04	-0.037090316
48	0xbd661c9d	-0.05617963
49	0x3d847fe7	0.06469708
50	0xbd99dff9	-0.075134225
51	0x3cd9629c	0.026536278
52	0x3d7ad006	0.061233543
53	0xbdd2b436	-0.10288279
54	0xbdf18e4b	-0.11794718
55	0xbe26482a	-0.16238466
56	0xbc971446	-0.018442284
57	0x3ddf3871	0.10899437
58	0x3df89547	0.121378474
59	0xbdb61840	-0.08891344
60	0xbda4a037	-0.08038371
61	0xbceef18b	-0.029167911
62	0xbe0ba778	-0.13638103
63	0xbe055132	-0.13019255
64	0xbc128ce9	-0.008944728
65	0xbc064a1e	-0.008196382
66	0x3e204aa4	0.15653473
67	0x3e190f3c	0.14947218
68	0x3da76c8a	0.08174999
69	0xbcd9d876	-0.026592474
70	0x3d8948a1	0.06703306
71	0x3c570c6f	0.013125523
72	0x3d4aeac0	0.04954028
73	0xbcc91d04	-0.024549969
74	0xbd8e92a6	-0.06961565
75	0x3cb09cbc	0.021559112
76	0xbd873df6	-0.06603615
77	0xbd592ecc	-0.053023145
78	0x3e106ca2	0.1410394
79	0x3d681d9f	0.056668874
80	0xbde6416b	-0.11242946
81	0x3d6606be	0.056158774
82	0xbdfa43c2	-0.12219955
83	0xbd95c431	-0.07312811
84	0xbc4b43e9	-0.012406328
85	0xbdab01c0	-0.08349943
86	0xbce47ef5	-0.02789257
87	0xbd338ea3	-0.0438372
88	0x3c3b50c3	0.011432829
89	0x3d34f832	0.04418201
90	0xbd9c256e	-0.07624327
91	0x3c89fc9d	0.016844088
92	0xbd1d40cc	-0.038391873
93	0xbd9185bc	-0.07105586
94	0xbe5bbd14	-0.21458846
95	0x3d7922a4	0.06082405
96	0xbcec6f0b	-0.028861543
97	0xbcd5323b	-0.026024928
98	0x3d222da8	0.039594322
99	0x3dc6ef1f	0.097135775
100	0xbd10a529	-0.03531376
101	0xbd935f61	-0.071959265
102	0x3ca645e1	0.020296993
103	0x3e277039	0.16351403
104	0xbdd7f601	-0.105449684
105	0xbd7f2781	-0.062293533
106	0x3e17a422	0.14808705
107	0x3d646eb5	0.05576964
108	0x3b5d8e86	0.0033806874
109	0xbde80883	-0.113297485
110	0xbb9e905b	-0.004838986
111	0x3d7d1290	0.06178528
112	0xbdf351b3	-0.11880817
113	0xbd107bba	-0.035274245
114	0xbcd57f25	-0.026061604
115	0xbd366e2f	-0.044538673
116	0xbd61da30	-0.05513972
117	0xbd1ad845	-0.037803907
118	0x3db144cb	0.08655699
119	0xbc7bf4bd	-0.015378174
120	0xbd911bda	-0.070853904
121	0xbc934353	-0.017976439
122	0x3d776a5f	0.060404178
123	0xbd01508a	-0.03157095
124	0xbd4ebfe7	-0.05047598
125	0xbc9cd307	-0.019143594
126	0xbb9876ad	-0.004652819
127	0xbe3dce42	-0.18535712

conv3.weight f4 [256, 128, 5]
0	0xbbd4be4a	-0.006492411
1	0xbda276da	-0.079328254
2	0x3d5a4e36	0.053297244
3	0x3b50a4ec	0.0031836582
4	0xbcede658	-0.0290405
5	0xbd0a82e1	-0.033816222
6	0x3cb10bde	0.021612104
7	0xbd7f7e96	-0.06237658
8	0x3d1eb98e	0.038751177
9	0x3d3c7152	0.04600651
10	0xbd42f3d6	-0.04759582
11	0x3d5e7d56	0.05431875
12	0x3d10a21c	0.03531085
13	0x3d8b17db	0.067916594
14	0xbcd95d21	-0.026533665
15	0x3d3baad1	0.0458172
16	0xbc30e6d9	-0.010797226
17	0xbcdb2b27	-0.026753975
18	0xbd942d39	-0.07235188
19	0x3ddef2c4	0.108861476
20	0xba222c5a	-0.00061864185
21	0xbcdd0d2e	-0.026983824
22	0xbcd05df4	-0.025435425
23	0xbabba6d0	-0.0014316682
24	0x3d94de80	0.07269001
25	0xbd041468	-0.032246023
26	0x3c9a2f00	0.01882124
27	0x3d669ced	0.056302
28	0xbcdf2155	-0.027237574
29	0xbcdcc55b	-0.026949575
30	0x3d585a21	0.05282033
31	0xbcb89c7e	-0.022535559
32	0x3d287a87	0.041132476
33	0xbe0af138	-0.1356858
34	0x3d63dabe	0.05562853
35	0xbcdb617a	-0.026779879
36	0x3d38dee8	0.045134455
37	0xbc77fe6c	-0.0151363425
38	0x3d3f2f0b	0.046675723
39	0x3ca6138f	0.020272998
40	0xbd7c8de0	-0.06165874
41	0xbccc05dc	-0.024905138
42	0x3c95040b	0.018190404
43	0xbd2725d7	-0.04080757
44	0x3bb8879b	0.0056314
45	0x3cc19042	0.023628358
46	0x3d09965b	0.033590656
47	0x3c50dc72	0.012747871
48	0x3c6dc8ce	0.014513208
49	0xbbda6307	-0.006664637
50	0xbbec87ed	-0.007218352
51	0x3d09592e	0.033532314
52	0xbb10cc55	-0.0022094448
53	0xbbda3573	-0.0066592037
54	0x3ddbde2d	0.10735736
55	0x3d36d1b4	0.044633582
56	0xbda0d3fd	-0.078529336
57	0x3bade245	0.0053065144
58	0x3c6f0b62	0.014590116
59	0x3e061c65	0.13096769
60	0xbda2ff41	-0.07958842
61	0xbd910abe	-0.07082127
62	0xbbb0f031	-0.005399727
63	0xbaa47ac2	-0.0012548792
64	0xbdd1aabf	-0.10237645
65	0xbd668fc4	-0.05628945
66	0x3d3c2721	0.045935754
67	0xbcf61234	-0.030037977
68	0x3c3706f2	0.0111710895
69	0x3c1cf356	0.0095795
70	0xbd720d12	-0.059094496
71	0x3c37e73b	0.011224563
72	0xbd0025e7	-0.031286146
73	0xbcee2130	-0.02906856
74	0x3c4e262d	0.012582344
75	0xbdbe032b	-0.09277948
76	0x3d2015d4	0.039083317
77	0x3d7deff1	0.061996404
78	0x3d31c93d	0.043404806
79	0x3cbefd87	0.02331425
80	0xbd2c4612	-0.04205901
81	0xbb136ed4	-0.0022496479
82	0xbd4acbf9	-0.04951093
83	0xbbf83693	-0.007574865
84	0x3e01b50a	0.12666717
85	0xbdb09abb	-0.086232625
86	0x3ccba484	0.02485872
87	0xbd3f7faa	-0.04675261
88	0x3bf9b0a7	0.0076199356
89	0x3d8c78b4	0.0685896
90	0x3c7b53fc	0.015339848
91	0xbca5c7d9	-0.020236896
92	0xbcb0e807	-0.021595014
93	0xbd8ad68a	-0.06779201
94	0xbb30aca2	-0.0026958366
95	0xbe20fe81	-0.15722086
96	0xbd0a90cb	-0.03382949
97	0x3d95c4e2	0.07312943
98	0x3cbe5d3a	0.023237813
99	0xbd7046f1	-0.058661405
100	0xbcd92ea7	-0.026511503
101	0xbd3c96e0	-0.046042323
102	0xbb70e620	-0.003675826
103	0x3bb9ac20	0.005666271
104	0x3bbff32d	0.0058578462
105	0x3b411013	0.0029459044
106	0xbd41d073	-0.047317933
107	0x3c2949b7	0.010332516
108	0xbd210013	-0.03930671
109	0x3d868ef8	0.06570238
110	0xbd687be5	-0.05675878
111	0xbd1274fc	-0.035756096
112	0xbcaac7fd	-0.020847315
113	0xbc031e66	-0.008002853
114	0xbd281668	-0.041036993
115	0x3b8098ff	0.0039244886
116	0x3ca0bf75	0.019622544
117	0xbcc95340	-0.02457583
118	0x3c0b6513	0.008507985
119	0xbc8d8919	-0.017277287
120	0xbdd6a295	-0.10480229
121	0x3ca05bc7	0.019575013
122	0xbcf8eb9d	-0.030385787
123	0xbd3aa606	-0.04556849
124	0xbcc9deac	-0.024642311
125	0xbdf661cd	-0.12030373
126	0x3d56287d	0.052284706
127	0x3dde1d15	0.10845391
128	0xbdee9d65	-0.116511144
129	0xbda23243	-0.07919743
130	0xbc711a96	-0.014715811
131	0xbcf90226	-0.030396532
132	0x3cd4cfdd	0.025978023
133	0xbd711bb2	-0.058864303
134	0xbd9d74f3	-0.07688322
135	0x3d8eaa62	0.06966092
136	0xbd002f7b	-0.03129528
137	0x3d02e8bc	0.031960234
138	0xbc217921	-0.00985554
139	0x3e0fcb57	0.14042412
140	0xbcaf59ab	-0.021405062
141	0x3bda35e5	0.0066592568
142	0xbcf55373	-0.029947018
143	0x3d6d0bae	0.057872467
144	0xbd697cc9	-0.05700377
145	0xbdd96682	-0.10615255
146	0x3d40f0e3	0.047104727
147	0x3cdd7f67	0.02703829
148	0xbd73fdc9	-0.0595682
149	0xbc9d7a4d	-0.019223357
150	0xbda5bccd	-0.080926515
151	0x36faf615	7.4792283e-06
152	0x3d32feb6	0.043699943
153	0xba4d3a94	-0.0007828858
154	0xbbf4c3fd	-0.0074696527
155	0x3c3fd260	0.011707872
156	0xbd0ac5ee	-0.033880167
157	0xba3447f7	-0.00068771787
158	0xbd7ba6e9	-0.061438475
159	0x3d8596f6	0.06522934
160	0xbd6aac64	-0.05729331
161	0xbc54d656	-0.012990555
162	0xbdb3bd98	-0.087763965
163	0xbdd1573d	-0.102217175
164	0xbd1e4320	-0.038638234
165	0x3d30244c	0.043003365
166	0xbd836817	-0.06416338
167	0xbd9ce6a2	-0.07661177
168	0xbd495dad	-0.0491616
169	0x3dda497c	0.10658547
170	0xbd1f0bd2	-0.038829632
171	0x3d32a7fc	0.043617234
172	0x3c755659	0.0149742
173	0xbd304048	-0.043030053
174	0xbda02f4e	-0.07821523
175	0x3c2a2f4b	0.010387252
176	0x3d07319e	0.033006303
177	0xbdc486c1	-0.09596015
178	0x3afcc56e	0.0019284913
179	0x3d0d7aa7	0.0345408
180	0xba445936	-0.00074901
181	0xbd2b2e46	-0.041792177
182	0xbd1dc579	-0.038518403
183	0xbd975acc	-0.07390365
184	0xbdc3f997	-0.0956909
185	0xbcf9e113	-0.030502832
186	0xbb95be57	-0.0045698094
187	0xbcbd5a5b	-0.023114374
188	0xbcb95c0e	-0.022626903
189	0x3d01db27	0.03170314
190	0xbd5b5a42	-0.053552873
191	0x3d70c857	0.05878481
192	0xbc1589be	-0.009127079
193	0xbc9a1c7c	-0.01881241
194	0xbcfac6e9	-0.030612426
195	0xbd40526c	-0.046953604
196	0x3d2948ea	0.041329302
197	0xbd630f74	-0.05543466
198	0x3d0ce185	0.03439476
199	0xbd3e8431	-0.046512786
200	0xbd0611cf	-0.032731827
201	0xba856c21	-0.001017932
202	0x3d185e48	0.03719929
203	0xbc19ade3	-0.009379837
204	0x3db76acf	0.08955919
205	0xbb93bd1e	-0.0045086285
206	0xbd13269d	-0.035925496
207	0x3981e163	0.00024772724
208	0xbd28d6d8	-0.041220516
209	0x3d989ce9	0.07451803
210	0x3be27b9c	0.006911708
211	0x3daeb9a7	0.08531504
212	0xbce32c9a	-0.027731229
213	0x3cdf879c	0.027286343
214	0xbd1a5f23	-0.037688386
215	0xbcb67f1b	-0.022277405
216	0xbd26c42d	-0.04071443
217	0xbd09c14b	-0.033631604
218	0xbaa1737d	-0.0012317743
219	0x3ce9ec4a	0.028555054
220	0x3d28e61e	0.04123508
221	0x3d003d2d	0.03130834
222	0x3d1261a2	0.03573764
223	0xbcbe8fa0	-0.023261845
224	0xbcaa968c	-0.02082374
225	0xbdc4bac5	-0.09605936
226	0x3a9bc40f	0.0011883992
227	0x3c1e0eae	0.009647055
228	0x3c39bbe9	0.011336305
229	0xbd9f155b	-0.07767745
230	0xbda97442	-0.082741275
231	0xbc07d76c	-0.008291107
232	0xbc0dce19	-0.008655095
233	0x3d83dce4	0.06438616
234	0x3ca58ead	0.020209635
235	0xbc5a4de6	-0.0133242365
236	0xbcb99edd	-0.02265876
237	0x3c983b6e	0.018583026
238	0x3c7b194b	0.0153258545
239	0xbbbf09d3	-0.0058300286
240	0xbc89ccf8	-0.01682137
241	0x3cad6949	0.021168368
242	0x3bb121db	0.005405647
243	0xbd306234	-0.043062404
244	0xbb30f6b3	-0.0027002513
245	0xbdb7173b	-0.08939978
246	0xbbed1104	-0.0072346944
247	0x3c559306	0.013035541
248	0xbcbd0423	-0.023073262
249	0x3d9c32b2	0.07626857
250	0xbd19bcd8	-0.03753361
251	0x3d4f52f7	0.05061623
252	0x3d467f29	0.048461113
253	0x3b527b9b	0.0032117132
254	0xbd01b9e6	-0.031671427
255	0xbd944cae	-0.07241188

conv3.bias f4 [256]
0	0xbddd3ee1	-0.10803009
1	0xbd153202	-0.036424644
2	0xbdb16fc2	-0.08663894
3	0xbd6dd1da	-0.05806146
4	0x3b8bf0fc	0.004270671
5	0xbd228309	-0.039675746
6	0xbb5c59ac	-0.0033622785
7	0x3bb9bd00	0.0056682825
8	0x3e1cae17	0.15300785
9	0x3c67ad96	0.014140507
10	0xbd906d49	-0.070520945
11	0xbd9ac6a6	-0.075574204
12	0xbb26ad57	-0.0025432908
13	0xbd55393e	-0.052056544
14	0x3c17d435	0.009266903
15	0xbda5c189	-0.080935545
16	0x3e00b318	0.12568319
17	0xbd9fb325	-0.07797841
18	0xbe1405d5	-0.1445535
19	0xbd958eb5	-0.0730261
20	0x3df0f726	0.1176589
21	0xbd4b1855	-0.04958375
22	0xbd2f9154	-0.042863205
23	0xbd8483ca	-0.06470449
24	0xbd840d42	-0.06447841
25	0xbd0821af	-0.03323525
26	0xbd244581	-0.040105347
27	0xbd85fa05	-0.06541828
28	0xbadb5a48	-0.001673528
29	0x3cd58f69	0.02606936
30	0xbde9aeea	-0.11410315
31	0xbde6c03b	-0.11267134
32	0xbdc1f5a6	-0.09470682
33	0xbd885a0d	-0.06657801
34	0xbd8a81d0	-0.06763041
35	0xbd4058dd	-0.046959747
36	0xbe1127a9	-0.14175285
37	0x3ca03a8c	0.019559167
38	0x3cd680e9	0.026184516
39	0xbd16c57d	-0.036809433
40	0x3c5f6eda	0.013637269
41	0xbd6038f4	-0.054741815
42	0xbd8bcd46	-0.06826262
43	0xbd8899ca	-0.06669958
44	0xbd43d9e0	-0.047815204
45	0xbd86b646	-0.06577735
46	0xbc8cad5d	-0.01717251
47	0xbb0be760	-0.0021347627
48	0xbd5d37b8	-0.054008216
49	0xbd878a18	-0.06618136
50	0xbd66c3ab	-0.056338947
51	0xbbff9b0c	-0.0078004654
52	0x3bbcd8ca	0.005763148
53	0xbc3e3ad0	-0.011610702
54	0xbdd331d6	-0.1031224
55	0xbd1571ff	-0.03648567
56	0xbc26f806	-0.010190969
57	0xbcdbde9f	-0.026839552
58	0x3e7d7a81	0.24753763
59	0xbd149d62	-0.036282904
60	0xbb3da189	-0.0028935394
61	0xbd88a8a2	-0.06672789
62	0x3e644b7b	0.22294419
63	0xbcd83648	-0.02639307
64	0xbd1c5160	-0.038163543
65	0x3d9dfbb8	0.07714027
66	0xbdc380ff	-0.095460884
67	0xbbe87baf	-0.0070948224
68	0x39acbf3e	0.00032948883
69	0xbdc2736a	-0.0949467
70	0xbce37335	-0.027764896
71	0x3d17b831	0.037040893
72	0xbd886a35	-0.066608824
73	0x3c794ab2	0.015215563
74	0xbd43deb0	-0.047819793
75	0xbcfd8440	-0.03094685
76	0xbc934826	-0.017978739
77	0xbd434d24	-0.04768099
78	0xbc46b204	-0.012127403
79	0xbd91307c	-0.07089326
80	0xbd916add	-0.07100461
81	0xbe010f7e	-0.12603566
82	0xbd4eaf29	-0.050460014
83	0xbbbb722c	-0.0057203975
84	0xbd540f14	-0.051772192
85	0xbb9b2931	-0.004735135
86	0xbdb1dcec	-0.08684716
87	0xbd819839	-0.06327862
88	0xbdc1b049	-0.09457452
89	0xbd5fa17a	-0.054597355
90	0x3bf51d7f	0.007480323
91	0xbd5dcc98	-0.054150194
92	0xbdcd7e49	-0.100338526
93	0xbc9ab4a3	-0.018884962
94	0x3c1c6f93	0.009548086
95	0x3d85bc4a	0.06530054
96	0xbd1552f7	-0.036456075
97	0xbc5593fe	-0.013035772
98	0x3dc00864	0.093766004
99	0x3d2028d4	0.039101437
100	0xbd578a30	-0.05262202
101	0x3d175382	0.036944874
102	0x3c3f238a	0.011666188
103	0x3c403ef8	0.011733763
104	0x3ca02827	0.019550396
105	0xbdf69637	-0.1204037
106	0xbd46a0b2	-0.048493095
107	0xbd774af5	-0.06037422
108	0x3da1ecf3	0.079065226
109	0x3c24687e	0.0100346785
110	0xbd40e9ab	-0.047097843
111	0xbe2977a3	-0.16549544
112	0xbc4b7546	-0.012418097
113	0xbd175407	-0.03694537
114	0xbda23126	-0.079195306
115	0x3ca502a8	0.020142868
116	0xbb8cd40f	-0.0042977403
117	0x3d4f36e9	0.050589476
118	0xbd113203	-0.035448086
119	0xbd4e1031	-0.05030841
120	0xbd932bd0	-0.07186091
121	0xbcb5f857	-0.022213144
122	0xbdaf7dc1	-0.085689075
123	0xbd1ec41d	-0.038761247
124	0xbd91d694	-0.07121006
125	0xbd9f3c5c	-0.077751845
126	0xbe677358	-0.22602594
127	0xbd62f4fe	-0.055409424
128	0x3ce6f8a2	0.02819473
129	0xbd83ef74	-0.064421564
130	0xbd9e171b	-0.07719251
131	0x3e00adc7	0.12566291
132	0x3a37a5be	0.00070055935
133	0xbc8ed928	-0.017437533
134	0xbd49bdda	-0.049253322
135	0xbdd05e22	-0.101742044
136	0x3e8d0023	0.27539167
137	0xbd664697	-0.056219663
138	0xbd903b72	-0.07042588
139	0xbd886199	-0.0665924
140	0xbbf38636	-0.0074317707
141	0xbde83da5	-0.11339883
142	0xbd803e7a	-0.062619165
143	0xbc785d21	-0.015158922
144	0xbcb6ea7c	-0.022328608
145	0xbd64babe	-0.055842154
146	0xbd96fedc	-0.07372829
147	0x3dc8705d	0.097870566
148	0xbd816e30	-0.06319845
149	0xbc95fd63	-0.0183093
150	0xbdaad5fd	-0.08341596
151	0xbda87163	-0.08224752
152	0xbd9ce196	-0.076602146
153	0xbd992299	-0.07477302
154	0xbd175a01	-0.03695107
155	0xbe564632	-0.20925215
156	0xbda8a2fa	-0.0823421
157	0xbcf76bfb	-0.030202856
158	0xbcdfcbc3	-0.02731884
159	0x3c5a7d8c	0.013335597
160	0xbd27336c	-0.040820524
161	0x3e980e44	0.29698384
162	0xbe20ada6	-0.15691242
163	0xbdc685df	-0.09693503
164	0xbc5a682b	-0.0133305
165	0xbdaad018	-0.08340472
166	0xbd42ed1c	-0.047589406
167	0x3e307bc2	0.1723471
168	0xbdc01800	-0.09379578
169	0xbd9d9840	-0.07695055
170	0x3df3d4b0	0.11905801
171	0xbdeaf5c0	-0.11472654
172	0x3e1e152d	0.15437765
173	0xbb5f4c89	-0.0034072718
174	0xbd733028	-0.059372097
175	0xbdc4d202	-0.09610368
176	0xbd12e2ab	-0.0358607
177	0xbd73e8d0	-0.0595482
178	0xbdb9c595	-0.09070889
179	0xbe3fb1f4	-0.18720227
180	0xbd378c70	-0.044811666
181	0xbd795239	-0.06086943
182	0x3d416bbf	0.047221895
183	0xbd65c48c	-0.056095645
184	0x3c6efb9d	0.0145863565
185	0x3d18c6d2	0.037298985
186	0xbc73a082	-0.014869811
187	0xbd93e651	-0.07221664
188	0x3d3e5b75	0.04647394
189	0x3c9718ea	0.018444497
190	0x3e63c62c	0.22243565
191	0xbd7b3aea	-0.06133548
192	0xbd2cd487	-0.04219487
193	0xbc709b9f	-0.01468554
194	0x3c836e11	0.016043695
195	0x3c922aa2	0.017842595
196	0xbd78999e	-0.060693376
197	0xbd77ddb1	-0.060514156
198	0xbd80ebe1	-0.0629499
199	0xbc63621a	-0.01387837
200	0xbda7f119	-0.082002826
201	0xbd0b9260	-0.03407514
202	0x3b3a2956	0.0028405986
203	0xbd017d59	-0.03161368
204	0x3ce3017a	0.027710665
205	0x3e5e518b	0.21710794
206	0xbd155194	-0.036454752
207	0x3c815851	0.015789183
208	0xbde17a38	-0.110096395
209	0xbcef8599	-0.029238509
210	0xbe50138b	-0.20319955
211	0xbd945494	-0.072426945
212	0xbd9e1515	-0.07718865
213	0xbd7351f5	-0.059404332
214	0xbcfc33d4	-0.030786432
215	0xbe2a68a0	-0.16641474
216	0xbcdec162	-0.027191821
217	0xbd4b7edf	-0.04968154
218	0xbd1e1bb7	-0.03860065
219	0xbd15fd6a	-0.036618628
220	0xbcc8c917	-0.02450995
221	0xbc1c6bf9	-0.009547227
222	0xbdb27404	-0.087135345
223	0xbcb9c6f9	-0.022677885
224	0xbbfb0009	-0.0076599163
225	0x3c26b9d8	0.010176145
226	0xbc91c039	-0.017791854
227	0xbe058a36	-0.13041005
228	0xbb631620	-0.0034650639
229	0xbce81371	-0.028329583
230	0xbca23069	-0.019798474
231	0x3bba4c2c	0.00568535
232	0x3c5471fd	0.01296663
233	0xbd525b8b	-0.051356833
234	0xbd28c22c	-0.0412008
235	0xbdb0bdf3	-0.0862998
236	0x39adc615	0.00033144714
237	0xbc6daac0	-0.014506042
238	0x3b821188	0.003969375
239	0x3d8d09b7	0.068866186
240	0xbd062c0c	-0.03275685
241	0xbcb1c1d0	-0.021698862
242	0xbd5e8eb9	-0.05433533
243	0x3d5b82a8	0.0535914
244	0xbb64227f	-0.00348106
245	0xbc5a2e4f	-0.013316705
246	0x3d00af6a	0.031417288
247	0xbe1f6cfb	-0.15568916
248	0xbd012eb6	-0.031538688
249	0xbcb8bfa3	-0.022552317
250	0xbd105d69	-0.035245333
251	0xbcec5ec6	-0.028853785
252	0xbde33990	-0.110949636
253	0x3d0e962c	0.034811184
254	0x3da36eea	0.079801396
255	0x3bfff88d	0.007811612

fc.weight f4 [7, 256]
0	0xbde93e50	-0.11388838
1	0xbe0d10ab	-0.1377589
2	0xbe908239	-0.28224352
3	0xbebac77c	-0.3648032
4	0x3ca727d7	0.02040474
5	0x3e94e0a6	0.29077643
6	0x3ea0701d	0.31335536
7	0x3e3f5eed	0.18688555
8	0x3ebea1bd	0.37232772
9	0xbd408b14	-0.047007635
10	0x3f0e252e	0.5552548
11	0xbf30a348	-0.6899915
12	0x3d74a043	0.05972315
13	0xbed0407c	-0.40674198
14	0x3e8e9e51	0.2785516
15	0xbebb0dea	-0.36534053
16	0x3f4004e1	0.75007445
17	0xbf17b074	-0.5925362
18	0x3d95cd56	0.07314555
19	0x3e6890f2	0.22711542
20	0xbe9c85e9	-0.30570915
21	0x3d704a7d	0.058664788
22	0x3e8dbaed	0.27681676
23	0xbdf9707c	-0.12179658
24	0xbdf2dc55	-0.11858431
25	0x3d263168	0.04057446
26	0x3e8d739c	0.27627265
27	0xbe456464	-0.19276577
28	0x3e55294e	0.20816538
29	0x3e442213	0.19153623
30	0xbdede2a2	-0.116154924
31	0xbebcb1c9	-0.3685439
32	0x3eaf4ddd	0.34239092
33	0x3ef1c1e4	0.4721824
34	0x3e05d4dd	0.13069482
35	0xbd0395f2	-0.03212542
36	0xbf5bd6da	-0.8587471
37	0xbdccebe9	-0.10005934
38	0x3e1a630f	0.1507685
39	0x3d65a8c3	0.056069147
40	0xbeaec696	-0.34135884
41	0xbe98414d	-0.2973732
42	0x3e9e29b1	0.30891183
43	0x3d389a2d	0.04506891
44	0x3f244d49	0.6418043
45	0x3dd538d0	0.10411227
46	0x3e31bbb2	0.17356756
47	0x3ee5a287	0.4485056
48	0xbf083ea3	-0.53220576
49	0xbf5387d6	-0.82629144
50	0xbf1510a5	-0.5822852
51	0x3dfb3e81	0.12267781
52	0xbe1fc8c8	-0.15603936
53	0xbe0a9215	-0.13532288
54	0x3eed5e9a	0.46361238
55	0xbdad639b	-0.08466264
56	0x3ee05c45	0.43820396
57	0xbc1de847	-0.009637899
58	0x3e01c43c	0.12672514
59	0x3eafff04	0.3437425
60	0x3e3e8fb5	0.18609507
61	0xbdf116ab	-0.11771902
62	0xbbee0f02	-0.0072649727
63	0xbe4aea39	-0.19815911
64	0x3e61d2c6	0.2205306
65	0x3f1148c2	0.56751645
66	0xbe885b60	-0.26632214
67	0x3ef0d560	0.47037792
68	0x3dd57b4b	0.10423907
69	0x3f1294ca	0.57258284
70	0x3db90348	0.09033829
71	0x3dcc1de6	0.0996664
72	0x3eac1973	0.33613166
73	0x3ee0d0f5	0.43909422
74	0xbf192ac9	-0.5983091
75	0x3e901084	0.281376
76	0xbdc706fc	-0.09718129
77	0xbe289bc9	-0.16465677
78	0x3f4531fc	0.77029395
79	0xbdf93e49	-0.12170083
80	0x3f0db098	0.55347586
81	0xbe0d80c5	-0.13818653
82	0xbebaf0eb	-0.3651193
83	0xbe2b921e	-0.16754958
84	0xbf0eeb72	-0.5582801
85	0x3f20e357	0.62846893
86	0x3e5fce54	0.21856052
87	0xbf29b191	-0.6628657
88	0xbe169ca2	-0.14708188
89	0xbf2fd9cd	-0.6869171
90	0xbf2c28ff	-0.67250055
91	0xbe2ea5bc	-0.1705541
92	0xbdbf032f	-0.09326779
93	0xbee1216c	-0.4397081
94	0xbc56ca08	-0.013109691
95	0x3ed40832	0.41412503
96	0x3f1f2d8d	0.6217888
97	0x3e89da8c	0.2692455
98	0x3f0c2229	0.54739624
99	0xbda5ff72	-0.08105363
100	0xbeb25472	-0.34830052
101	0x3e56b14b	0.2096607
102	0xbcdf4c13	-0.027257955
103	0xbeca52d8	-0.3951633
104	0x3e6244f0	0.2209661
105	0xbf389a4b	-0.7211043
106	0x3e11f42f	0.14253305
107	0xbf0d6600	-0.55233765
108	0x3e1dea22	0.15421346
109	0xbe30cbb2	-0.17265204
110	0xbe76f68e	-0.2411749
111	0xbf220f4c	-0.6330459
112	0x3eddf1d3	0.4334856
113	0x3f00547f	0.5012893
114	0x3edff3fa	0.43740827
115	0x3eaa9a92	0.33321053
116	0x3f2ae991	0.66762644
117	0xbec4eb6c	-0.38460863
118	0xbdd81fda	-0.1055295
119	0xbe14958b	-0.14510171
120	0xbf373849	-0.7157026
121	0x3e9b2268	0.30299687
122	0xbd8067b7	-0.06269782
123	0xbe7a7ac6	-0.24460897
124	0xbe06eb3b	-0.13175671
125	0xbef327f1	-0.4749141
126	0xbf6f134a	-0.9338881
127	0xbee5037e	-0.44729227
128	0xbd53c57c	-0.051702008
129	0xbea66f12	-0.32506615
130	0x3dc2af07	0.0950604
131	0xbe06c97c	-0.13162798
132	0x3c20dda1	0.009818465
133	0x3cb9e894	0.02269391
134	0xbf3d580a	-0.7396246
135	0x3da0fcd3	0.078607224
136	0x3e9739bd	0.29536238
137	0xbf234be1	-0.6378766
138	0xbecdaddc	-0.40171707
139	0x3b8911d6	0.0041830344
140	0xbeb25dc0	-0.3483715
141	0xbd982277	-0.07428449
142	0x3c4028d3	0.011728483
143	0x3dc9b650	0.098492265
144	0x3e577b33	0.2104309
145	0xbcadbb8e	-0.021207597
146	0x3dd7e32f	0.10541379
147	0x3bd99ffc	0.006641386
148	0x3e312edd	0.17303033
149	0x3e06dfcd	0.1317131
150	0xbda13956	-0.07872264
151	0x3f0a12de	0.5393504
152	0x3f27d5fa	0.6556088
153	0xbe89ebd3	-0.26937732
154	0x3f0c75f3	0.54867476
155	0xbf259e75	-0.6469491
156	0xbe8e59a4	-0.27802765
157	0x3ed69470	0.41910124
158	0x3ec673e3	0.3876029
159	0xbdc544cd	-0.09632263
160	0xbf40cb5b	-0.75310296
161	0x3dd7d237	0.10538142
162	0xbd6ed651	-0.058309857
163	0xbecec055	-0.40381113
164	0x3eb342e0	0.3501196
165	0x3f142656	0.57870996
166	0x3f178075	0.59180385
167	0xbc5e068f	-0.013551368
168	0xbe5e8ed2	-0.21734169
169	0xbe17a2ef	-0.14808248
170	0x3e4475b5	0.19185527
171	0xbf2f4c86	-0.6847614
172	0x3f2bdc64	0.67133164
173	0xbf3a578a	-0.72789824
174	0xbed30bd1	-0.41219953
175	0xbef6b6e4	-0.4818641
176	0xbd5bc281	-0.05365229
177	0x3de20e81	0.11037923
178	0xbe92e821	-0.28692725
179	0xbf104098	-0.5634856
180	0x3e95d573	0.2926441
181	0xbcb621a7	-0.022232844
182	0x3eb093e3	0.3448783
183	0xbf1e06ee	-0.61729324
184	0x3e9953e4	0.29946816
185	0x3e3a5bb0	0.18199039
186	0xbf445bd7	-0.76702636
187	0xbf8dd2bb	-1.1079935
188	0x3f277ad0	0.6542177
189	0xbcd01bb3	-0.025403833
190	0x3f075be2	0.5287458
191	0x3d961fc9	0.07330281
192	0xbf47d9ad	-0.7806652
193	0x3ef3271d	0.4749078
194	0x3c3db3bb	0.011578496
195	0x3ed3071c	0.41216362
196	0xbea715d3	-0.32633838
197	0xbe4a1632	-0.1973503
198	0xbf163915	-0.5868085
199	0xbef1acee	-0.47202247
200	0xbeb63080	-0.35583878
201	0x3ee0889c	0.43854225
202	0x3d8fa4f9	0.07013888
203	0x3eed34ba	0.4632929
204	0x3e51b35f	0.20478581
205	0x3e80c6dc	0.25151718
206	0x3e3cf52b	0.18452899
207	0x3d98bf40	0.07458353
208	0x3f054384	0.52056146
209	0x3e656cf7	0.22404848
210	0xbf44f3fc	-0.7693479
211	0xbea4c04b	-0.32177958
212	0x3ea9eb75	0.33187452
213	0xbdb572d2	-0.08859791
214	0xbe5eeb97	-0.21769558
215	0xbe85e945	-0.26154533
216	0x3e916cda	0.2840336
217	0xbd290f30	-0.04127425
218	0x3f20644e	0.6265305
219	0xbd147b89	-0.036250625
220	0xbd800380	-0.062506676
221	0xbda15ceb	-0.07879051
222	0xbf1961d8	-0.5991492
223	0x3eda54bc	0.42642772
224	0x3f37251d	0.71541005
225	0xbed56932	-0.4168182
226	0x3ce46053	0.027877962
227	0xbf69383e	-0.91101444
228	0xbcbec763	-0.023288434
229	0xbeb55707	-0.3541796
230	0xbd4c6630	-0.04990214
231	0x3ebafd62	0.3652144
232	0x3ef52155	0.47876993
233	0x3f29484c	0.6612594
234	0x3ed60d0c	0.4180683
235	0x3c104ad3	0.008806902
236	0xbe960fa4	-0.29308808
237	0xbe1e39df	-0.15451764
238	0xbe5ad268	-0.21369326
239	0x3f699db2	0.9125625
240	0x3e81626e	0.25270408
241	0x3e3a37c6	0.18185338
242	0xbf11af84	-0.5690844
243	0x3e804bcc	0.25057828
244	0xbdcdc32a	-0.1004699
245	0x3a77d78b	0.00094544207
246	0x3ec4af94	0.38415205
247	0xbe0e7b00	-0.13914108
248	0xbe1ab5f0	-0.15108466
249	0xbeed1a05	-0.46308914
250	0xbeddf0ce	-0.43347782
251	0x3c823546	0.015894543
252	0x3df80e33	0.12112083
253	0x3ed15934	0.4088837
254	0x3ee6e7ad	0.4509863
255	0x3e991a4a	0.2990287

fc.bias f4 [7]
0	0x3f764353	0.9619648
1	0x3d6a0bf0	0.05714029
2	0x3fc885d3	1.566584
3	0xbe9977a2	-0.29974085
4	0xbe7f08a5	-0.24905641
5	0xbf575945	-0.8412059
6	0xbf9e0a08	-1.2346811
